Binocular Camera Calibration/parameters for rectification.npz (npz, 1700 bytes, 5 tensors)

R1 f8 [3, 3]
000000 a3 4e d5 45 18 ff ef 3f 2f 37 09 a1 30 19 81 bf
       0.9998895038538261 -0.008348827280453356
000010 14 55 ce 07 78 30 89 bf 66 62 35 49 48 18 81 3f
       -0.012299478281230715 0.008347096189639202
000020 c3 73 cb e6 b6 ff ef 3f f6 78 3d fd eb 2c 29 bf
       0.9999651439389868 -0.0001920736382272148
000030 f3 d7 50 b8 15 31 89 3f 4c 38 4a 53 b1 6e 17 3f
       0.012300653159496 8.938748653461551e-05
000040 ae b6 67 54 61 ff ef 3f
       0.9999243401086539

R2 f8 [3, 3]
000000 c4 54 28 f6 55 fe ef 3f 98 cf 7c d0 6d 8b 89 bf
       0.9997968490376015 -0.012472970891032095
000010 d3 c7 13 61 8a 36 90 bf eb 1f 70 e2 98 8c 89 3f
       -0.01583305566322919 0.012475199137057266
000020 4b d7 21 cd 5c ff ef 3f d0 e6 cc 09 4b 01 06 3f
       0.9999221807945359 4.197130440393231e-05
000030 5e 9f b5 8f 14 36 90 3f f8 3f 8b e2 b9 63 2f bf
       0.01583130004055932 -0.0002394833002399286
000040 47 59 64 1e f9 fe ef 3f
       0.9998746484368802

P1 f8 [3, 4]
000000 13 36 8c c5 32 8e 7c 40 00 00 00 00 00 00 00 00
       456.88739542741786 0.0
000010 00 00 00 c8 89 c6 75 40 00 00 00 00 00 00 00 00
       348.4086380004883 0.0
000020 00 00 00 00 00 00 00 00 13 36 8c c5 32 8e 7c 40
       0.0 456.88739542741786
000030 00 00 00 b0 97 4f 6e 40 00 00 00 00 00 00 00 00
       242.48726654052734 0.0
000040 00 00 00 00 00 00 00 00 00 00 00 00 00 00 00 00
       0.0 0.0
000050 00 00 00 00 00 00 f0 3f 00 00 00 00 00 00 00 00
       1.0 0.0

P2 f8 [3, 4]
000000 13 36 8c c5 32 8e 7c 40 00 00 00 00 00 00 00 00
       456.88739542741786 0.0
000010 00 00 00 08 43 74 75 40 db c8 9e e8 04 e1 97 c0
       343.26636505126953 -1528.2547936258404
000020 00 00 00 00 00 00 00 00 13 36 8c c5 32 8e 7c 40
       0.0 456.88739542741786
000030 00 00 00 b0 97 4f 6e 40 00 00 00 00 00 00 00 00
       242.48726654052734 0.0
000040 00 00 00 00 00 00 00 00 00 00 00 00 00 00 00 00
       0.0 0.0
000050 00 00 00 00 00 00 f0 3f 00 00 00 00 00 00 00 00
       1.0 0.0

Q f8 [4, 4]
000000 00 00 00 00 00 00 f0 3f 00 00 00 00 00 00 00 00
       1.0 0.0
000010 00 00 00 00 00 00 00 00 00 00 00 c8 89 c6 75 c0
       0.0 -348.4086380004883
000020 00 00 00 00 00 00 00 00 00 00 00 00 00 00 f0 3f
       0.0 1.0
000030 00 00 00 00 00 00 00 00 00 00 00 b0 97 4f 6e c0
       0.0 -242.48726654052734
000040 00 00 00 00 00 00 00 00 00 00 00 00 00 00 00 00
       0.0 0.0
000050 00 00 00 00 00 00 00 00 13 36 8c c5 32 8e 7c 40
       0.0 456.88739542741786
000060 00 00 00 00 00 00 00 00 00 00 00 00 00 00 00 00
       0.0 0.0
000070 3b e7 37 10 2a 22 d3 3f 11 8e 47 a9 ec 98 f8 bf
       0.2989602239973583 -1.5373350727539938
