Binocular Camera Calibration/parameters for calibration.npz (npz, 1552 bytes, 7 tensors)

ret f8 []
0	0x3fdca8471b13c952	0.44777085918680826

mtx_l f8 [3, 3]
0	0x4080c0966290cee4	536.0734301865709
1	0x0000000000000000	0.0
2	0x407565ed1bde7525	342.37038790605067
3	0x0000000000000000	0.0
4	0x4080c021795adae9	536.016344747358
5	0x406d712ded5eedd8	235.53685635128818
6	0x0000000000000000	0.0
7	0x0000000000000000	0.0
8	0x3ff0000000000000	1.0

mtx_r f8 [3, 3]
0	0x4080f2d68387fa85	542.3547430632904
1	0x0000000000000000	0.0
2	0x4074852fe0c5726d	328.3241889679692
3	0x0000000000000000	0.0
4	0x4080eceb830f6eb6	541.6149960714017
5	0x406ede5037c7fbc3	246.9472922235419
6	0x0000000000000000	0.0
7	0x0000000000000000	0.0
8	0x3ff0000000000000	1.0

dist_l f8 [1, 5]
0	0xbfd0f73c506dc0e2	-0.2650900636135828
1	0xbfa7eed12cee57c7	-0.04674390481447648
2	0x3f5e0833cf141df1	0.0018330102869316101
3	0xbf34a0092cee87da	-0.00031471466075505344
4	0x3fd025f16d4e5496	0.2523158614579385

dist_r f8 [1, 5]
0	0xbfd1f46af9283995	-0.2805430825400433
1	0x3fbab4f5c71d8cae	0.1043237315293932
2	0xbf424aa2a1558b28	-0.0005582136242704193
3	0x3f555b846d00f4da	0.0013035577030813734
4	0xbf984a7bb9f2a617	-0.02372163126407231

R f8 [3, 3]
0	0x3fefffe10d0cf8fd	0.9999852423568708
1	0x3f70e99ef098a8cc	0.004129048212727148
2	0x3f6cec7855806705	0.0035307264588596587
3	0xbf70e89e37f5b0be	-0.004128091851594627
4	0x3fefffee0cc55a61	0.9999914407188265
5	0xbf3239f58ac45bb9	-0.0002781128375927661
6	0xbf6ceed09edbe22f	-0.0035318445796941526
7	0x3f31455c10b83da3	0.00026353357017768804
8	0x3feffff2d8e70e70	0.9999937282922939

T f8 [3, 1]
0	0xc00ac10499c28af2	-3.344247056245302
1	0x3fa55c7a398f9e28	0.041721171881189456
2	0x3fab1da06f23473f	0.05296040875113172
