Monocular Camera Calibration/parameters.npz (npz, 1448 bytes, 4 tensors)

mtx f8 [3, 3]
0	0x4080c0966290cee4	536.0734301865709
1	0x0000000000000000	0.0
2	0x407565ed1bde7525	342.37038790605067
3	0x0000000000000000	0.0
4	0x4080c021795adae9	536.016344747358
5	0x406d712ded5eedd8	235.53685635128818
6	0x0000000000000000	0.0
7	0x0000000000000000	0.0
8	0x3ff0000000000000	1.0

dist f8 [1, 5]
0	0xbfd0f73c506dc0e2	-0.2650900636135828
1	0xbfa7eed12cee57c7	-0.04674390481447648
2	0x3f5e0833cf141df1	0.0018330102869316101
3	0xbf34a0092cee87da	-0.00031471466075505344
4	0x3fd025f16d4e5496	0.2523158614579385

rvecs f8 [13, 3, 1]
0	0x3fc59293c076b6b6	0.16853567979472012
1	0x3fd1a5f081b36fce	0.27575314203363355
2	0x3f8b9525b41d4322	0.013468069609787362
3	0x3fda6fb2df8bb8b2	0.41306754904406795
4	0x3fe4c76f9ace9d9d	0.6493452094627404
5	0xbff5652660b6ce7a	-1.3371948030370775
6	0xbfd1b9f623e3eba7	-0.2769751883021691
7	0x3fc7ec0b4e04e922	0.18689099607019793
8	0x3fd6b590c72db6e5	0.3548318810561411
9	0xbfbc5ee5b68403dd	-0.11082301813077274
10	0x3fceb00d5bdd7bf3	0.23974768624881868
11	0xbf617da32218c1dd	-0.0021351038165209183
12	0xbfd2ae3376c76506	-0.2918823871564914
13	0x3fdb6941803887b1	0.42829930802883626
14	0x3ff500d046b4d2a9	1.3126986276594528
15	0x3fda183cd11cf17b	0.40772934361645924
16	0x3fd3723e26763cfd	0.3038478255848103
17	0x3ffa6292764a00d5	1.6490654583613396
18	0x3fc6f8f7cc4aaa91	0.17947289920023882
19	0x3fd620ba6138f525	0.34574756140121315
20	0x3ffde5413073b20b	1.8684703724530916
21	0xbfb74995145882d2	-0.09096652743074721
22	0x3fdeb2bb66d16108	0.47965893784341107
23	0x3ffc0ddc8069786a	1.7533841148465634
24	0x3fc9f8c02ebb984d	0.20290376932024615
25	0xbfdb2523615dd74b	-0.4241417361111998
26	0x3fc0f44edb688636	0.1324556895570354
27	0xbfdad54c1cc75bb8	-0.419268634895555
28	0xbfdffed77c8d4d18	-0.49992930568005667
29	0x3ff55e66ab0164c7	1.335547130575195
30	0xbfce8723feda247b	-0.23849916404677515
31	0x3fd641f42db9f2d6	0.3477755018755436
32	0x3ff87de5d7efbecf	1.5307367739696252
33	0x3fdda20d457898ae	0.46301585945401313
34	0xbfd21dd7bf461014	-0.2830714576632556
35	0x3ff3d1526a61c7bd	1.2386039882226065
36	0xbfc5c93fc3b6b63e	-0.1702041345246687
37	0xbfde2b5a3c9c42c7	-0.4713960258386973
38	0x3ff58928d046dda4	1.3459861884892712

tvecs f8 [13, 3, 1]
0	0xc00816e863ca7a60	-3.0111854358831778
1	0xc0116e25fbbb15d0	-4.35756676988008
2	0x402ffc59d5aa8633	15.992872883859581
3	0xc002c39ca2fd60e4	-2.3455136045050597
4	0x400a8df51fe98a7f	3.3193151944299752
5	0x402c4ed3e38b7e82	14.153960333612535
6	0xbff988787124fb07	-1.5958179874139107
7	0xc0101065f2c7d5ec	-4.016013902136802
8	0x4029759affcb9743	12.729698175051118
9	0xc00f81d3b95355c5	-3.9383921125943027
10	0xc0058a12ac55d736	-2.6924184287735455
11	0x402a79ba217dbcaa	13.237748190497161
12	0x4002b38ae4300461	2.337667257991186
13	0xc01272c3753311ae	-4.612073737375267
14	0x402961ab4574208d	12.690759821344068
15	0x401ac0a66c1e4475	6.688134850833298
16	0xc004f9f3074e0d53	-2.622045571393451
17	0x402aed0ad569c194	13.462973279151619
18	0x3fe8ebe959586bf2	0.7787977929141319
19	0xc006f9dd5ec7f0ca	-2.8720042614714645
20	0x402f2915e8a880d2	15.580245276040305
21	0x4009478f677bbe36	3.1599414906156893
22	0xc00c22f9a010237f	-3.5170776848721625
23	0x4029570b15d602d3	12.670006449102777
24	0xc0053e6f9ef50a01	-2.6554863375215523
25	0xc009ebd6581ff53e	-3.240154922938614
26	0x4026453fbec77edf	11.135251962521066
27	0x3ffdfb16b7f081a6	1.8738009629379149
28	0xc011c20a70cc3b6f	-4.439492952790586
29	0x402b0d43936f00ff	13.525906188297538
30	0x40003a75ef476ef5	2.028545255057788
31	0xc01069ca8b4ad07d	-4.103311706963834
32	0x4029c869a0674764	12.891430866820606
33	0x3ff588cbe799b4f5	1.3458975836650187
34	0xc00d53d9d376dce9	-3.665942813935193
35	0x40275551561f3a11	11.666636172592037
36	0x3ffcc6e4108cd1d7	1.7985573431479815
37	0xc0114e46dfc7359c	-4.326442238363054
38	0x402900b9b16664da	12.501416724919569
